样本数据集的维度： (4800, 56, 46, 1) (4800, 40)
检验数据集的维度： (1600, 56, 46, 1) (1600, 40)
测试数据集的维度： (1600, 56, 46, 1) (1600, 40)
Model: "sequential_1"
_________________________________________________________________
Layer (type)                 Output Shape              Param #   
=================================================================
conv2d_1 (Conv2D)            (None, 56, 46, 32)        320       
_________________________________________________________________
activation_1 (Activation)    (None, 56, 46, 32)        0         
_________________________________________________________________
batch_normalization_1 (Batch (None, 56, 46, 32)        128       
_________________________________________________________________
max_pooling2d_1 (MaxPooling2 (None, 28, 23, 32)        0         
_________________________________________________________________
dropout_1 (Dropout)          (None, 28, 23, 32)        0         
_________________________________________________________________
conv2d_2 (Conv2D)            (None, 28, 23, 64)        18496     
_________________________________________________________________
activation_2 (Activation)    (None, 28, 23, 64)        0         
_________________________________________________________________
batch_normalization_2 (Batch (None, 28, 23, 64)        256       
_________________________________________________________________
conv2d_3 (Conv2D)            (None, 28, 23, 64)        36928     
_________________________________________________________________
activation_3 (Activation)    (None, 28, 23, 64)        0         
_________________________________________________________________
batch_normalization_3 (Batch (None, 28, 23, 64)        256       
_________________________________________________________________
max_pooling2d_2 (MaxPooling2 (None, 14, 11, 64)        0         
_________________________________________________________________
dropout_2 (Dropout)          (None, 14, 11, 64)        0         
_________________________________________________________________
conv2d_4 (Conv2D)            (None, 14, 11, 128)       73856     
_________________________________________________________________
activation_4 (Activation)    (None, 14, 11, 128)       0         
_________________________________________________________________
batch_normalization_4 (Batch (None, 14, 11, 128)       512       
_________________________________________________________________
conv2d_5 (Conv2D)            (None, 14, 11, 128)       147584    
_________________________________________________________________
activation_5 (Activation)    (None, 14, 11, 128)       0         
_________________________________________________________________
batch_normalization_5 (Batch (None, 14, 11, 128)       512       
_________________________________________________________________
max_pooling2d_3 (MaxPooling2 (None, 7, 5, 128)         0         
_________________________________________________________________
dropout_3 (Dropout)          (None, 7, 5, 128)         0         
_________________________________________________________________
flatten_1 (Flatten)          (None, 4480)              0         
_________________________________________________________________
dense_1 (Dense)              (None, 512)               2294272   
_________________________________________________________________
activation_6 (Activation)    (None, 512)               0         
_________________________________________________________________
batch_normalization_6 (Batch (None, 512)               2048      
_________________________________________________________________
dropout_4 (Dropout)          (None, 512)               0         
_________________________________________________________________
dense_2 (Dense)              (None, 40)                20520     
_________________________________________________________________
activation_7 (Activation)    (None, 40)                0         
=================================================================
Total params: 2,595,688
Trainable params: 2,593,832
Non-trainable params: 1,856
_________________________________________________________________
Epoch 1/20

  1/240 [..............................] - ETA: 6:56 - loss: 6.2127 - accuracy: 0.0000e+00
  2/240 [..............................] - ETA: 4:40 - loss: 5.8768 - accuracy: 0.0000e+00
…
