样本数据集的维度： (240, 112, 92, 1) (240, 40)
测试数据集的维度： (160, 112, 92, 1) (160, 40)
Model: "sequential_1"
_________________________________________________________________
Layer (type)                 Output Shape              Param #   
=================================================================
conv2d_1 (Conv2D)            (None, 108, 88, 6)        156       
_________________________________________________________________
activation_1 (Activation)    (None, 108, 88, 6)        0         
_________________________________________________________________
average_pooling2d_1 (Average (None, 54, 44, 6)         0         
_________________________________________________________________
conv2d_2 (Conv2D)            (None, 50, 40, 12)        1812      
_________________________________________________________________
activation_2 (Activation)    (None, 50, 40, 12)        0         
_________________________________________________________________
average_pooling2d_2 (Average (None, 25, 20, 12)        0         
_________________________________________________________________
conv2d_3 (Conv2D)            (None, 21, 16, 12)        3612      
_________________________________________________________________
activation_3 (Activation)    (None, 21, 16, 12)        0         
_________________________________________________________________
average_pooling2d_3 (Average (None, 10, 8, 12)         0         
_________________________________________________________________
flatten_1 (Flatten)          (None, 960)               0         
_________________________________________________________________
dense_1 (Dense)              (None, 256)               246016    
_________________________________________________________________
activation_4 (Activation)    (None, 256)               0         
_________________________________________________________________
dense_2 (Dense)              (None, 40)                10280     
_________________________________________________________________
activation_5 (Activation)    (None, 40)                0         
=================================================================
Total params: 261,876
Trainable params: 261,876
Non-trainable params: 0
_________________________________________________________________
Train on 240 samples, validate on 160 samples
Epoch 1/10

  2/240 [..............................] - ETA: 18s - loss: 3.6889 - accuracy: 0.0000e+00
 10/240 [>.............................] - ETA: 4s - loss: 3.6887 - accuracy: 0.1000     
…
第40个人识别为第31个人
第40个人识别为第31个人
第40个人识别为第31个人
第40个人识别为第31个人
第40个人识别为第31个人
第40个人识别为第31个人
第40个人识别为第31个人
第40个人识别为第31个人
第40个人识别为第31个人
Test score: 3.6320501375198364
Test accuracy: 0.05000000074505806
样本数据集的维度： (2400, 112, 92, 1) (2400, 40)
测试数据集的维度： (1600, 112, 92, 1) (1600, 40)
样本数据集的维度： (2400, 112, 92, 1) (2400, 40)
测试数据集的维度： (1600, 112, 92, 1) (1600, 40)
Model: "sequential_1"
_________________________________________________________________
Layer (type)                 Output Shape              Param #   
=================================================================
conv2d_1 (Conv2D)            (None, 108, 88, 6)        156       
_________________________________________________________________
activation_1 (Activation)    (None, 108, 88, 6)        0         
_________________________________________________________________
average_pooling2d_1 (Average (None, 54, 44, 6)         0         
_________________________________________________________________
dropout_1 (Dropout)          (None, 54, 44, 6)         0         
_________________________________________________________________
conv2d_2 (Conv2D)            (None, 50, 40, 12)        1812      
_________________________________________________________________
activation_2 (Activation)    (None, 50, 40, 12)        0         
_________________________________________________________________
average_pooling2d_2 (Average (None, 25, 20, 12)        0         
_________________________________________________________________
dropout_2 (Dropout)          (None, 25, 20, 12)        0         
_________________________________________________________________
flatten_1 (Flatten)          (None, 6000)              0         
_________________________________________________________________
dense_1 (Dense)              (None, 512)               3072512   
_________________________________________________________________
activation_3 (Activation)    (None, 512)               0         
_________________________________________________________________
dense_2 (Dense)              (None, 40)                20520     
_________________________________________________________________
activation_4 (Activation)    (None, 40)                0         
=================================================================
Total params: 3,095,000
Trainable params: 3,095,000
Non-trainable params: 0
_________________________________________________________________
Train on 2400 samples, validate on 1600 samples
Epoch 1/50

  60/2400 [..............................] - ETA: 18s - loss: 3.6817 - accuracy: 0.0167
 120/2400 [>.............................] - ETA: 13s - loss: 3.6853 - accuracy: 0.0083
…
第40个人识别为第35个人
第40个人识别为第35个人
第40个人识别为第35个人
第40个人识别为第35个人
第40个人识别为第35个人
第40个人识别为第35个人
第40个人识别为第35个人
第40个人识别为第35个人
第40个人识别为第35个人
第40个人识别为第35个人
第40个人识别为第35个人
第40个人识别为第35个人
第40个人识别为第35个人
第40个人识别为第35个人
第40个人识别为第35个人
Test score: 3.606576108932495
Test accuracy: 0.05000000074505806
样本数据集的维度： (2400, 112, 92, 1) (2400, 40)
测试数据集的维度： (1600, 112, 92, 1) (1600, 40)
Model: "sequential_1"
_________________________________________________________________
Layer (type)                 Output Shape              Param #   
=================================================================
conv2d_1 (Conv2D)            (None, 108, 88, 6)        156       
_________________________________________________________________
activation_1 (Activation)    (None, 108, 88, 6)        0         
_________________________________________________________________
average_pooling2d_1 (Average (None, 54, 44, 6)         0         
_________________________________________________________________
dropout_1 (Dropout)          (None, 54, 44, 6)         0         
_________________________________________________________________
conv2d_2 (Conv2D)            (None, 50, 40, 12)        1812      
_________________________________________________________________
activation_2 (Activation)    (None, 50, 40, 12)        0         
_________________________________________________________________
average_pooling2d_2 (Average (None, 25, 20, 12)        0         
_________________________________________________________________
dropout_2 (Dropout)          (None, 25, 20, 12)        0         
_________________________________________________________________
conv2d_3 (Conv2D)            (None, 21, 16, 12)        3612      
_________________________________________________________________
activation_3 (Activation)    (None, 21, 16, 12)        0         
_________________________________________________________________
average_pooling2d_3 (Average (None, 10, 8, 12)         0         
_________________________________________________________________
flatten_1 (Flatten)          (None, 960)               0         
_________________________________________________________________
dense_1 (Dense)              (None, 512)               492032    
_________________________________________________________________
activation_4 (Activation)    (None, 512)               0         
_________________________________________________________________
dense_2 (Dense)              (None, 40)                20520     
_________________________________________________________________
activation_5 (Activation)    (None, 40)                0         
=================================================================
Total params: 518,132
Trainable params: 518,132
Non-trainable params: 0
_________________________________________________________________
Train on 2400 samples, validate on 1600 samples
Epoch 1/50

  60/2400 [..............................] - ETA: 15s - loss: 3.8960 - accuracy: 0.0000e+00
 120/2400 [>.............................] - ETA: 12s - loss: 3.7925 - accuracy: 0.0083    
…
