样本数据集的维度： (480, 56, 46, 1) (480, 40)
检验数据集的维度： (256, 56, 46, 1) (256, 40)
测试数据集的维度： (64, 56, 46, 1) (64, 40)
Model: "sequential_1"
_________________________________________________________________
Layer (type)                 Output Shape              Param #   
=================================================================
conv2d_1 (Conv2D)            (None, 56, 46, 32)        320       
_________________________________________________________________
max_pooling2d_1 (MaxPooling2 (None, 28, 23, 32)        0         
_________________________________________________________________
flatten_1 (Flatten)          (None, 20608)             0         
_________________________________________________________________
dense_1 (Dense)              (None, 1024)              21103616  
_________________________________________________________________
dense_2 (Dense)              (None, 512)               524800    
_________________________________________________________________
dense_3 (Dense)              (None, 40)                20520     
=================================================================
Total params: 21,649,256
Trainable params: 21,649,256
Non-trainable params: 0
_________________________________________________________________
Train on 480 samples, validate on 256 samples
Epoch 1/50

  5/480 [..............................] - ETA: 27s - loss: 3.8056 - accuracy: 0.0000e+00
 10/480 [..............................] - ETA: 23s - loss: 3.7740 - accuracy: 0.0000e+00
…
