样本数据集的维度： (240, 224, 224, 1) (240, 40)
检验数据集的维度： (80, 224, 224, 1) (80, 40)
测试数据集的维度： (80, 224, 224, 1) (80, 40)
Model: "sequential_1"
_________________________________________________________________
Layer (type)                 Output Shape              Param #   
=================================================================
conv2d_1 (Conv2D)            (None, 54, 54, 96)        11712     
_________________________________________________________________
max_pooling2d_1 (MaxPooling2 (None, 26, 26, 96)        0         
_________________________________________________________________
conv2d_2 (Conv2D)            (None, 26, 26, 256)       614656    
_________________________________________________________________
max_pooling2d_2 (MaxPooling2 (None, 12, 12, 256)       0         
_________________________________________________________________
conv2d_3 (Conv2D)            (None, 12, 12, 384)       885120    
_________________________________________________________________
conv2d_4 (Conv2D)            (None, 12, 12, 384)       1327488   
_________________________________________________________________
conv2d_5 (Conv2D)            (None, 12, 12, 256)       884992    
_________________________________________________________________
max_pooling2d_3 (MaxPooling2 (None, 5, 5, 256)         0         
_________________________________________________________________
flatten_1 (Flatten)          (None, 6400)              0         
_________________________________________________________________
dense_1 (Dense)              (None, 1024)              6554624   
_________________________________________________________________
dropout_1 (Dropout)          (None, 1024)              0         
_________________________________________________________________
dense_2 (Dense)              (None, 512)               524800    
_________________________________________________________________
dropout_2 (Dropout)          (None, 512)               0         
_________________________________________________________________
dense_3 (Dense)              (None, 40)                20520     
=================================================================
Total params: 10,823,912
Trainable params: 10,823,912
Non-trainable params: 0
_________________________________________________________________
Train on 240 samples, validate on 80 samples
Epoch 1/50

  2/240 [..............................] - ETA: 1:19 - loss: 3.6889 - accuracy: 0.0000e+00
  4/240 [..............................] - ETA: 59s - loss: 3.6890 - accuracy: 0.0000e+00 
…
